…
=None, log_path='/home/exx/GithubClonedRepo/EEG-Research/Experiment/EEGClassification/summary_models/', info='EEGNet', img_encoder='efficientnet_b0', eeg_encoder='EEGNet', batch_size=64, num_classes=40, gpu=0, device=device(type='cuda', index=0))
2023-08-29 14:26:08.722 | INFO     | __main__:run:29 - ==========================================================================================
Layer (type:depth-idx)                   Output Shape              Param #
==========================================================================================
EEGClassificationNet                     [64, 40]                  --
├─classifier_EEGNet: 1-1                 [64, 128]                 --
│    └─Sequential: 2-1                   [64, 16, 1, 13]           --
│    │    └─ZeroPad2d: 3-1               [64, 1, 128, 659]         --
│    │    └─Conv2d: 3-2                  [64, 8, 128, 440]         1,768
│    │    └─BatchNorm2d: 3-3             [64, 8, 128, 440]         16
│    │    └─Conv2d: 3-4                  [64, 16, 1, 440]          2,064
│    │    └─BatchNorm2d: 3-5             [64, 16, 1, 440]          32
│    │    └─ELU: 3-6                     [64, 16, 1, 440]          --
│    │    └─AvgPool2d: 3-7               [64, 16, 1, 110]          --
│    │    └─Dropout: 3-8                 [64, 16, 1, 110]          --
│    │    └─ZeroPad2d: 3-9               [64, 16, 1, 125]          --
│    │    └─Conv2d: 3-10                 [64, 16, 1, 110]          528
│    │    └─Conv2d: 3-11                 [64, 16, 1, 110]          272
│    │    └─BatchNorm2d: 3-12            [64, 16, 1, 110]          32
│    │    └─ELU: 3-13                    [64, 16, 1, 110]          --
│    │    └─AvgPool2d: 3-14              [64, 16, 1, 13]           --
│    │    └─Dropout: 3-15                [64, 16, 1, 13]           --
│    └─Linear: 2-2                       [64, 128]                 26,752
├─Sequential: 1-2                        [64, 40]                  --
│    └─Linear: 2-3                       [64, 40]                  5,160
==========================================================================================
Total params: 36,624
Trainable params: 36,624
Non-trainable params: 0
Total mult-adds (G): 6.44
==========================================================================================
Input size (MB): 14.42
Forward/backward pass size (MB): 471.37
Params size (MB): 0.15
Estimated Total Size (MB): 485.94
==========================================================================================
