…
2023-11-08 21:11:00.745 | INFO     | __main__:run:25 - Namespace(embedding_size=128, classifier_mode='classic', weight_path=None, log_path='/home/exx/GithubClonedRepo/EEG-Research/Experiment/EEGClassification/summary_models/', info='efficientnet_b0', img_encoder='efficientnet_b0', eeg_encoder='Stacked_BiLSTM', batch_size=64, num_classes=40, gpu=0, device=device(type='cuda', index=0))
2023-11-08 21:11:02.355 | INFO     | __main__:run:31 - ==============================================================================================================
Layer (type:depth-idx)                                       Output Shape              Param #
==============================================================================================================
ImageEncoder_EEG2Image                                       [64, 40]                  --
├─EfficientNet: 1-1                                          [64, 40]                  --
│    └─Sequential: 2-1                                       [64, 1280, 16, 14]        --
│    │    └─Conv2dNormActivation: 3-1                        [64, 32, 256, 220]        928
│    │    └─Sequential: 3-2                                  [64, 16, 256, 220]        1,448
│    │    └─Sequential: 3-3                                  [64, 24, 128, 110]        16,714
│    │    └─Sequential: 3-4                                  [64, 40, 64, 55]          46,640
│    │    └─Sequential: 3-5                                  [64, 80, 32, 28]          242,930
│    │    └─Sequential: 3-6                                  [64, 112, 32, 28]         543,148
│    │    └─Sequential: 3-7                                  [64, 192, 16, 14]         2,026,348
│    │    └─Sequential: 3-8                                  [64, 320, 16, 14]         717,232
│    │    └─Conv2dNormActivation: 3-9                        [64, 1280, 16, 14]        412,160
│    └─AdaptiveAvgPool2d: 2-2                                [64, 1280, 1, 1]          --
│    └─Sequential: 2-3                                       [64, 40]                  --
│    │    └─Dropout: 3-10                                    [64, 1280]                --
│    │    └─Linear: 3-11                                     [64, 40]                  51,240
==============================================================================================================
Total params: 4,058,788
Trainable params: 4,058,788
Non-trainable params: 0
Total mult-adds (G): 111.73
==============================================================================================================
Input size (MB): 173.02
Forward/backward pass size (MB): 31147.51
Params size (MB): 16.24
…
2023-11-08 21:23:27.899 | INFO     | __main__:run:25 - Namespace(embedding_size=128, classifier_mode='classic', weight_path=None, log_path='/home/exx/GithubClonedRepo/EEG-Research/Experiment/EEGClassification/summary_models/', info='efficientnet_b0', img_encoder='resnet50', eeg_encoder='Stacked_BiLSTM', batch_size=64, num_classes=40, gpu=0, device=device(type='cuda', index=0))
2023-11-08 21:23:29.540 | INFO     | __main__:run:31 - ===============================================================================================
Layer (type:depth-idx)                        Output Shape              Param #
===============================================================================================
ImageEncoder_EEG2Image                        [64, 40]                  --
├─ResNet: 1-1                                 [64, 40]                  --
│    └─Conv2d: 2-1                            [64, 64, 112, 112]        9,408
│    └─BatchNorm2d: 2-2                       [64, 64, 112, 112]        128
│    └─ReLU: 2-3                              [64, 64, 112, 112]        --
│    └─MaxPool2d: 2-4                         [64, 64, 56, 56]          --
│    └─Sequential: 2-5                        [64, 256, 56, 56]         --
│    │    └─Bottleneck: 3-1                   [64, 256, 56, 56]         75,008
│    │    └─Bottleneck: 3-2                   [64, 256, 56, 56]         70,400
│    │    └─Bottleneck: 3-3                   [64, 256, 56, 56]         70,400
│    └─Sequential: 2-6                        [64, 512, 28, 28]         --
│    │    └─Bottleneck: 3-4                   [64, 512, 28, 28]         379,392
│    │    └─Bottleneck: 3-5                   [64, 512, 28, 28]         280,064
│    │    └─Bottleneck: 3-6                   [64, 512, 28, 28]         280,064
│    │    └─Bottleneck: 3-7                   [64, 512, 28, 28]         280,064
│    └─Sequential: 2-7                        [64, 1024, 14, 14]        --
│    │    └─Bottleneck: 3-8                   [64, 1024, 14, 14]        1,512,448
│    │    └─Bottleneck: 3-9                   [64, 1024, 14, 14]        1,117,184
│    │    └─Bottleneck: 3-10                  [64, 1024, 14, 14]        1,117,184
│    │    └─Bottleneck: 3-11                  [64, 1024, 14, 14]        1,117,184
│    │    └─Bottleneck: 3-12                  [64, 1024, 14, 14]        1,117,184
│    │    └─Bottleneck: 3-13                  [64, 1024, 14, 14]        1,117,184
│    └─Sequential: 2-8                        [64, 2048, 7, 7]          --
│    │    └─Bottleneck: 3-14                  [64, 2048, 7, 7]          6,039,552
│    │    └─Bottleneck: 3-15                  [64, 2048, 7, 7]          4,462,592
│    │    └─Bottleneck: 3-16                  [64, 2048, 7, 7]          4,462,592
│    └─AdaptiveAvgPool2d: 2-9                 [64, 2048, 1, 1]          --
│    └─Linear: 2-10                           [64, 40]                  81,960
===============================================================================================
Total params: 23,589,992
Trainable params: 23,589,992
Non-trainable params: 0
Total mult-adds (G): 261.59
===============================================================================================
Input size (MB): 38.54
Forward/backward pass size (MB): 11380.74
Params size (MB): 94.36
Estimated Total Size (MB): 11513.64
…
2023-11-08 21:24:13.500 | INFO     | __main__:run:25 - Namespace(embedding_size=128, classifier_mode='classic', weight_path=None, log_path='/home/exx/GithubClonedRepo/EEG-Research/Experiment/EEGClassification/summary_models/', info='efficientnet_b0', img_encoder='efficientnet_b0', eeg_encoder='Stacked_BiLSTM', batch_size=64, num_classes=40, gpu=0, device=device(type='cuda', index=0))
2023-11-08 21:24:14.963 | INFO     | __main__:run:31 - ==============================================================================================================
Layer (type:depth-idx)                                       Output Shape              Param #
==============================================================================================================
ImageEncoder_EEG2Image                                       [64, 40]                  --
├─EfficientNet: 1-1                                          [64, 40]                  --
│    └─Sequential: 2-1                                       [64, 1280, 7, 7]          --
│    │    └─Conv2dNormActivation: 3-1                        [64, 32, 112, 112]        928
│    │    └─Sequential: 3-2                                  [64, 16, 112, 112]        1,448
│    │    └─Sequential: 3-3                                  [64, 24, 56, 56]          16,714
│    │    └─Sequential: 3-4                                  [64, 40, 28, 28]          46,640
│    │    └─Sequential: 3-5                                  [64, 80, 14, 14]          242,930
│    │    └─Sequential: 3-6                                  [64, 112, 14, 14]         543,148
│    │    └─Sequential: 3-7                                  [64, 192, 7, 7]           2,026,348
│    │    └─Sequential: 3-8                                  [64, 320, 7, 7]           717,232
│    │    └─Conv2dNormActivation: 3-9                        [64, 1280, 7, 7]          412,160
│    └─AdaptiveAvgPool2d: 2-2                                [64, 1280, 1, 1]          --
│    └─Sequential: 2-3                                       [64, 40]                  --
│    │    └─Dropout: 3-10                                    [64, 1280]                --
│    │    └─Linear: 3-11                                     [64, 40]                  51,240
==============================================================================================================
Total params: 4,058,788
Trainable params: 4,058,788
Non-trainable params: 0
Total mult-adds (G): 24.62
==============================================================================================================
Input size (MB): 38.54
Forward/backward pass size (MB): 6904.20
Params size (MB): 16.24
…
2023-11-08 21:28:50.094 | INFO     | __main__:run:25 - Namespace(embedding_size=128, classifier_mode='classic', weight_path=None, log_path='/home/exx/GithubClonedRepo/EEG-Research/Experiment/EEGClassification/summary_models/', info='efficientnet_b0', img_encoder='efficientnet_b1', eeg_encoder='Stacked_BiLSTM', batch_size=64, num_classes=40, gpu=0, device=device(type='cuda', index=0))
2023-11-08 21:29:18.482 | INFO     | __main__:run:31 - ==============================================================================================================
Layer (type:depth-idx)                                       Output Shape              Param #
==============================================================================================================
ImageEncoder_EEG2Image                                       [64, 40]                  --
├─EfficientNet: 1-1                                          [64, 40]                  --
│    └─Sequential: 2-1                                       [64, 1280, 7, 7]          --
│    │    └─Conv2dNormActivation: 3-1                        [64, 32, 112, 112]        928
│    │    └─Sequential: 3-2                                  [64, 16, 112, 112]        2,060
│    │    └─Sequential: 3-3                                  [64, 24, 56, 56]          27,424
│    │    └─Sequential: 3-4                                  [64, 40, 28, 28]          77,930
│    │    └─Sequential: 3-5                                  [64, 80, 14, 14]          345,830
│    │    └─Sequential: 3-6                                  [64, 112, 14, 14]         751,720
│    │    └─Sequential: 3-7                                  [64, 192, 7, 7]           2,614,300
│    │    └─Sequential: 3-8                                  [64, 320, 7, 7]           2,280,832
│    │    └─Conv2dNormActivation: 3-9                        [64, 1280, 7, 7]          412,160
│    └─AdaptiveAvgPool2d: 2-2                                [64, 1280, 1, 1]          --
│    └─Sequential: 2-3                                       [64, 40]                  --
│    │    └─Dropout: 3-10                                    [64, 1280]                --
│    │    └─Linear: 3-11                                     [64, 40]                  51,240
==============================================================================================================
Total params: 6,564,424
Trainable params: 6,564,424
Non-trainable params: 0
Total mult-adds (G): 36.38
==============================================================================================================
Input size (MB): 38.54
Forward/backward pass size (MB): 9572.02
Params size (MB): 26.26
…
2023-11-08 21:53:22.417 | INFO     | __main__:run:25 - Namespace(embedding_size=128, classifier_mode='classic', weight_path=None, log_path='/home/exx/GithubClonedRepo/EEG-Research/Experiment/EEGClassification/summary_models/', info='efficientnet_b0', img_encoder='alexnet', eeg_encoder='Stacked_BiLSTM', batch_size=64, num_classes=40, gpu=0, device=device(type='cuda', index=0))
2023-11-08 21:56:48.818 | INFO     | __main__:run:31 - ==========================================================================================
Layer (type:depth-idx)                   Output Shape              Param #
==========================================================================================
ImageEncoder_EEG2Image                   [64, 40]                  --
├─AlexNet: 1-1                           [64, 40]                  --
│    └─Sequential: 2-1                   [64, 256, 6, 6]           --
│    │    └─Conv2d: 3-1                  [64, 64, 55, 55]          23,296
│    │    └─ReLU: 3-2                    [64, 64, 55, 55]          --
│    │    └─MaxPool2d: 3-3               [64, 64, 27, 27]          --
│    │    └─Conv2d: 3-4                  [64, 192, 27, 27]         307,392
│    │    └─ReLU: 3-5                    [64, 192, 27, 27]         --
│    │    └─MaxPool2d: 3-6               [64, 192, 13, 13]         --
│    │    └─Conv2d: 3-7                  [64, 384, 13, 13]         663,936
│    │    └─ReLU: 3-8                    [64, 384, 13, 13]         --
│    │    └─Conv2d: 3-9                  [64, 256, 13, 13]         884,992
│    │    └─ReLU: 3-10                   [64, 256, 13, 13]         --
│    │    └─Conv2d: 3-11                 [64, 256, 13, 13]         590,080
│    │    └─ReLU: 3-12                   [64, 256, 13, 13]         --
│    │    └─MaxPool2d: 3-13              [64, 256, 6, 6]           --
│    └─AdaptiveAvgPool2d: 2-2            [64, 256, 6, 6]           --
│    └─Sequential: 2-3                   [64, 40]                  --
│    │    └─Dropout: 3-14                [64, 9216]                --
│    │    └─Linear: 3-15                 [64, 4096]                37,752,832
│    │    └─ReLU: 3-16                   [64, 4096]                --
│    │    └─Dropout: 3-17                [64, 4096]                --
│    │    └─Linear: 3-18                 [64, 4096]                16,781,312
│    │    └─ReLU: 3-19                   [64, 4096]                --
│    │    └─Linear: 3-20                 [64, 40]                  163,880
==========================================================================================
Total params: 57,167,720
Trainable params: 57,167,720
Non-trainable params: 0
Total mult-adds (G): 45.49
==========================================================================================
Input size (MB): 38.54
Forward/backward pass size (MB): 252.53
Params size (MB): 228.67
Estimated Total Size (MB): 519.74
…
