…
0, gpu=0, device=device(type='cuda', index=0))
2023-11-09 21:20:11.565 | INFO     | __main__:run:31 - ============================================================================================================================================
Layer (type:depth-idx)                                                                     Output Shape              Param #
============================================================================================================================================
ImageEncoder_EEG2Image                                                                     [64, 40]                  --
├─MaxVit: 1-1                                                                              [64, 40]                  --
│    └─Sequential: 2-1                                                                     [64, 64, 112, 112]        --
│    │    └─Conv2dNormActivation: 3-1                                                      [64, 64, 112, 112]        1,856
│    │    └─Conv2dNormActivation: 3-2                                                      [64, 64, 112, 112]        36,928
│    └─ModuleList: 2-2                                                                     --                        --
│    │    └─MaxVitBlock: 3-3                                                               [64, 64, 56, 56]          294,952
│    │    └─MaxVitBlock: 3-4                                                               [64, 128, 28, 28]         1,114,064
│    │    └─MaxVitBlock: 3-5                                                               [64, 256, 14, 14]         11,165,456
│    │    └─MaxVitBlock: 3-6                                                               [64, 512, 7, 7]           17,530,688
│    └─Sequential: 2-3                                                                     [64, 40]                  --
│    │    └─AdaptiveAvgPool2d: 3-7                                                         [64, 512, 1, 1]           --
│    │    └─Flatten: 3-8                                                                   [64, 512]                 --
│    │    └─LayerNorm: 3-9                                                                 [64, 512]                 1,024
│    │    └─Linear: 3-10                                                                   [64, 512]                 262,656
│    │    └─Tanh: 3-11                                                                     [64, 512]                 --
│    │    └─Linear: 3-12                                                                   [64, 40]                  20,520
============================================================================================================================================
Total params: 30,428,144
Trainable params: 30,428,144
Non-trainable params: 0
Total mult-adds (G): 128.84
============================================================================================================================================
Input size (MB): 38.54
…
