…
2023-10-20 20:46:06.945 | INFO     | __main__:run:24 - Namespace(model_name='wgan_multi_channel', log_path='summary_models', info='WGAN_GP_Multichannel', img_encoder='inception_v3', eeg_encoder='EEGChannelNet', batch_size=64, num_classes=40, gpu=0, device=device(type='cuda', index=0))
2023-10-20 20:46:08.106 | INFO     | __main__:run:29 - ==========================================================================================
Layer (type:depth-idx)                   Output Shape              Param #
==========================================================================================
EEGGenerator                             [64, 64, 64, 64]          --
├─Sequential: 1-1                        [64, 1024]                --
│    └─Linear: 2-1                       [64, 1024]                123,904
│    └─LeakyReLU: 2-2                    [64, 1024]                --
├─Sequential: 1-2                        [64, 41472]               --
│    └─Linear: 2-3                       [64, 41472]               42,508,800
│    └─BatchNorm1d: 2-4                  [64, 41472]               82,944
│    └─LeakyReLU: 2-5                    [64, 41472]               --
├─Sequential: 1-3                        [64, 128, 36, 36]         --
│    └─Upsample: 2-6                     [64, 128, 36, 36]         --
│    └─BatchNorm2d: 2-7                  [64, 128, 36, 36]         256
│    └─LeakyReLU: 2-8                    [64, 128, 36, 36]         --
├─Sequential: 1-4                        [64, 64, 34, 34]          --
│    └─Conv2d: 2-9                       [64, 64, 34, 34]          73,792
│    └─BatchNorm2d: 2-10                 [64, 64, 34, 34]          128
│    └─LeakyReLU: 2-11                   [64, 64, 34, 34]          --
├─Sequential: 1-5                        [64, 128, 64, 64]         --
│    └─Deconv2D_Linear_Weight: 2-12      [64, 128, 70, 70]         --
│    │    └─ConvTranspose2d: 3-1         [64, 128, 70, 70]         131,200
│    └─ClipLayer: 2-13                   [64, 128, 64, 64]         --
│    └─BatchNorm2d: 2-14                 [64, 128, 64, 64]         256
│    └─LeakyReLU: 2-15                   [64, 128, 64, 64]         --
├─Sequential: 1-6                        [64, 64, 64, 64]          --
│    └─Conv2dSamePadding: 2-16           [64, 64, 64, 64]          73,792
│    │    └─ZeroPad2d: 3-2               [64, 128, 66, 66]         --
│    └─Tanh: 2-17                        [64, 64, 64, 64]          --
==========================================================================================
Total params: 42,995,072
Trainable params: 42,995,072
Non-trainable params: 0
Total mult-adds (G): 49.34
==========================================================================================
Input size (MB): 0.03
Forward/backward pass size (MB): 793.25
Params size (MB): 171.69
Estimated Total Size (MB): 964.96
…
2023-10-20 20:50:58.482 | INFO     | __main__:run:24 - Namespace(model_name='wgan_multi_channel', log_path='summary_models', info='WGAN_GP_Multichannel', img_encoder='inception_v3', eeg_encoder='EEGChannelNet', batch_size=64, num_classes=40, gpu=0, device=device(type='cuda', index=0))
2023-10-20 20:50:59.645 | INFO     | __main__:run:29 - ==========================================================================================
Layer (type:depth-idx)                   Output Shape              Param #
==========================================================================================
EEGGenerator                             [64, 1, 64, 64]           --
├─Sequential: 1-1                        [64, 1024]                --
│    └─Linear: 2-1                       [64, 1024]                123,904
│    └─LeakyReLU: 2-2                    [64, 1024]                --
├─Sequential: 1-2                        [64, 41472]               --
│    └─Linear: 2-3                       [64, 41472]               42,508,800
│    └─BatchNorm1d: 2-4                  [64, 41472]               82,944
│    └─LeakyReLU: 2-5                    [64, 41472]               --
├─Sequential: 1-3                        [64, 128, 36, 36]         --
│    └─Upsample: 2-6                     [64, 128, 36, 36]         --
│    └─BatchNorm2d: 2-7                  [64, 128, 36, 36]         256
│    └─LeakyReLU: 2-8                    [64, 128, 36, 36]         --
├─Sequential: 1-4                        [64, 64, 34, 34]          --
│    └─Conv2d: 2-9                       [64, 64, 34, 34]          73,792
│    └─BatchNorm2d: 2-10                 [64, 64, 34, 34]          128
│    └─LeakyReLU: 2-11                   [64, 64, 34, 34]          --
├─Sequential: 1-5                        [64, 128, 64, 64]         --
│    └─Deconv2D_Linear_Weight: 2-12      [64, 128, 70, 70]         --
│    │    └─ConvTranspose2d: 3-1         [64, 128, 70, 70]         131,200
│    └─ClipLayer: 2-13                   [64, 128, 64, 64]         --
│    └─BatchNorm2d: 2-14                 [64, 128, 64, 64]         256
│    └─LeakyReLU: 2-15                   [64, 128, 64, 64]         --
├─Sequential: 1-6                        [64, 1, 64, 64]           --
│    └─Conv2dSamePadding: 2-16           [64, 1, 64, 64]           1,153
│    │    └─ZeroPad2d: 3-2               [64, 128, 66, 66]         --
│    └─Tanh: 2-17                        [64, 1, 64, 64]           --
==========================================================================================
Total params: 42,922,433
Trainable params: 42,922,433
Non-trainable params: 0
Total mult-adds (G): 49.34
==========================================================================================
Input size (MB): 0.03
Forward/backward pass size (MB): 793.25
Params size (MB): 171.69
Estimated Total Size (MB): 964.96
…
2023-10-20 20:53:33.556 | INFO     | __main__:run:24 - Namespace(model_name='wgan_multi_channel', log_path='summary_models', info='WGAN_GP_Multichannel', img_encoder='inception_v3', eeg_encoder='EEGChannelNet', batch_size=64, num_classes=40, gpu=0, device=device(type='cuda', index=0))
2023-10-20 20:53:34.835 | INFO     | __main__:run:29 - ==========================================================================================
Layer (type:depth-idx)                   Output Shape              Param #
==========================================================================================
EEGGenerator                             [64, 1, 64, 64]           --
├─Sequential: 1-1                        [64, 1024]                --
│    └─Linear: 2-1                       [64, 1024]                123,904
│    └─LeakyReLU: 2-2                    [64, 1024]                --
├─Sequential: 1-2                        [64, 41472]               --
│    └─Linear: 2-3                       [64, 41472]               42,508,800
│    └─BatchNorm1d: 2-4                  [64, 41472]               82,944
│    └─LeakyReLU: 2-5                    [64, 41472]               --
├─Sequential: 1-3                        [64, 128, 36, 36]         --
│    └─Upsample: 2-6                     [64, 128, 36, 36]         --
│    └─BatchNorm2d: 2-7                  [64, 128, 36, 36]         256
│    └─LeakyReLU: 2-8                    [64, 128, 36, 36]         --
├─Sequential: 1-4                        [64, 64, 34, 34]          --
│    └─Conv2d: 2-9                       [64, 64, 34, 34]          73,792
│    └─BatchNorm2d: 2-10                 [64, 64, 34, 34]          128
│    └─LeakyReLU: 2-11                   [64, 64, 34, 34]          --
├─Sequential: 1-5                        [64, 128, 64, 64]         --
│    └─Deconv2D_Linear_Weight: 2-12      [64, 128, 70, 70]         --
│    │    └─ConvTranspose2d: 3-1         [64, 128, 70, 70]         131,200
│    └─ClipLayer: 2-13                   [64, 128, 64, 64]         --
│    └─BatchNorm2d: 2-14                 [64, 128, 64, 64]         256
│    └─LeakyReLU: 2-15                   [64, 128, 64, 64]         --
├─Sequential: 1-6                        [64, 1, 64, 64]           --
│    └─Conv2dSamePadding: 2-16           [64, 1, 64, 64]           1,153
│    │    └─ZeroPad2d: 3-2               [64, 128, 66, 66]         --
│    └─Tanh: 2-17                        [64, 1, 64, 64]           --
==========================================================================================
Total params: 42,922,433
Trainable params: 42,922,433
Non-trainable params: 0
Total mult-adds (G): 49.34
==========================================================================================
Input size (MB): 0.03
Forward/backward pass size (MB): 793.25
Params size (MB): 171.69
Estimated Total Size (MB): 964.96
==========================================================================================
2023-10-20 20:53:34.844 | INFO     | __main__:run:30 - ==========================================================================================
Layer (type:depth-idx)                   Output Shape              Param #
==========================================================================================
EEGDiscriminator                         [64, 1]                   --
├─Sequential: 1-1                        [64, 64, 64, 64]          --
│    └─Conv2d: 2-1                       [64, 64, 64, 64]          640
│    └─LeakyReLU: 2-2                    [64, 64, 64, 64]          --
├─Sequential: 1-2                        [64, 128, 32, 32]         --
│    └─Conv2dSamePadding: 2-3            [64, 128, 32, 32]         73,856
│    │    └─ZeroPad2d: 3-1               [64, 64, 66, 66]          --
│    └─LeakyReLU: 2-4                    [64, 128, 32, 32]         --
├─Sequential: 1-3                        [64, 128, 16, 16]         --
│    └─Conv2dSamePadding: 2-5            [64, 128, 16, 16]         147,584
│    │    └─ZeroPad2d: 3-2               [64, 128, 34, 34]         --
│    └─LeakyReLU: 2-6                    [64, 128, 16, 16]         --
├─Flatten: 1-4                           [64, 32768]               --
├─Linear: 1-5                            [64, 1024]                33,555,456
├─LeakyReLU: 1-6                         [64, 1024]                --
├─Linear: 1-7                            [64, 1]                   1,025
==========================================================================================
Total params: 33,778,561
Trainable params: 33,778,561
Non-trainable params: 0
Total mult-adds (G): 2.32
==========================================================================================
Input size (MB): 1.05
Forward/backward pass size (MB): 134.74
Params size (MB): 134.23
Estimated Total Size (MB): 270.02
…
